…
urce":"model","metadata":{"_uuid":"50963a7d-46e3-4d7f-8d7d-d9b6a73c2c76","_cell_guid":"c8f0416a-abee-4b5e-b01b-b50fe2ecd8d6","trusted":true,"collapsed":false,"execution":{"iopub.status.busy":"2024-11-09T03:08:06.221313Z","iopub.execute_input":"2024-11-09T03:08:06.221751Z","iopub.status.idle":"2024-11-09T03:08:06.228430Z","shell.execute_reply.started":"2024-11-09T03:08:06.221688Z","shell.execute_reply":"2024-11-09T03:08:06.227455Z"},"jupyter":{"outputs_hidden":false}},"outputs":[{"execution_count":8,"output_type":"execute_result","data":{"text/plain":"AlexNet(\n  (features): Sequential(\n    (0): Conv2d(3, 64, kernel_size=(11, 11), stride=(4, 4), padding=(2, 2))\n    (1): ReLU(inplace=True)\n    (2): MaxPool2d(kernel_size=3, stride=2, padding=0, dilation=1, ceil_mode=False)\n    (3): Conv2d(64, 192, kernel_size=(5, 5), stride=(1, 1), padding=(2, 2))\n    (4): ReLU(inplace=True)\n    (5): MaxPool2d(kernel_size=3, stride=2, padding=0, dilation=1, ceil_mode=False)\n    (6): Conv2d(192, 384, kernel_size=(3, 3), stride=(1, 1), padding=(1, 1))\n    (7): ReLU(inplace=True)\n    (8): Conv2d(384, 256, kernel_size=(3, 3), stride=(1, 1), padding=(1, 1))\n    (9): ReLU(inplace=True)\n    (10): Conv2d(256, 256, kernel_size=(3, 3), stride=(1, 1), padding=(1, 1))\n    (11): ReLU(inplace=True)\n    (12): MaxPool2d(kernel_size=3, stride=2, padding=0, dilation=1, ceil_mode=False)\n  )\n  (avgpool): AdaptiveAvgPool2d(output_size=(6, 6))\n  (classifier): Sequential(\n    (0): Dropout(p=0.5, inplace=False)\n    (1): Linear(in_features=9216, out_features=4096, bias=True)\n    (2): ReLU(inplace=True)\n    (3): Dropout(p=0.5, inplace=False)\n    (4): Linear(in_features=4096, out_features=4096, bias=True)\n    (5): ReLU(inplace=True)\n    (6): Linear(in_features=4096, out_features=1000, bias=True)\n  )\n)"},"metadata":{}}],"execution_count":8},{"cell_type":"code","source":"# Modify the first convolutional layer to accept 32x32 images if needed\nmodel.features[0] = nn.Conv2d(3, 64, kernel_size=3, stride=1, padding=1)\n\n# Modify the classifier to output 10 classes\nmodel.classifier[6] = nn.Linear(4096, 10)\n\n# Send model to device (GPU or CPU)
…
could be executed during unpickling. Arbitrary objects will no longer be allowed to be loaded via this mode unless they are explicitly allowlisted by the user via `torch.serialization.add_safe_globals`. We recommend you start setting `weights_only=True` for any use case where you don't have full control of the loaded file. Please open an issue on GitHub for any issues related to this experimental feature.\n  model.load_state_dict(torch.load(pathway))\n","output_type":"stream"},{"execution_count":11,"output_type":"execute_result","data":{"text/plain":"AlexNet(\n  (features): Sequential(\n    (0): Conv2d(3, 64, kernel_size=(3, 3), stride=(1, 1), padding=(1, 1))\n    (1): ReLU(inplace=True)\n    (2): MaxPool2d(kernel_size=3, stride=2, padding=0, dilation=1, ceil_mode=False)\n    (3): Conv2d(64, 192, kernel_size=(5, 5), stride=(1, 1), padding=(2, 2))\n    (4): ReLU(inplace=True)\n    (5): MaxPool2d(kernel_size=3, stride=2, padding=0, dilation=1, ceil_mode=False)\n    (6): Conv2d(192, 384, kernel_size=(3, 3), stride=(1, 1), padding=(1, 1))\n    (7): ReLU(inplace=True)\n    (8): Conv2d(384, 256, kernel_size=(3, 3), stride=(1, 1), padding=(1, 1))\n    (9): ReLU(inplace=True)\n    (10): Conv2d(256, 256, kernel_size=(3, 3), stride=(1, 1), padding=(1, 1))\n    (11): ReLU(inplace=True)\n    (12): MaxPool2d(kernel_size=3, stride=2, padding=0, dilation=1, ceil_mode=False)\n  )\n  (avgpool): AdaptiveAvgPool2d(output_size=(6, 6))\n  (classifier): Sequential(\n    (0): Dropout(p=0.5, inplace=False)\n    (1): Linear(in_features=9216, out_features=4096, bias=True)\n    (2): ReLU(inplace=True)\n    (3): Dropout(p=0.5, inplace=False)\n    (4): Linear(in_features=4096, out_features=4096, bias=True)\n    (5): ReLU(inplace=True)\n    (6): Linear(in_features=4096, out_features=10, bias=True)\n  )\n)"},"metadata":{}}],"execution_count":11},{"cell_type":"code","source":"import random\nfrom tqdm import tqdm\n# Patch attack function with variable patch size\ndef apply_patch(image, patch_size_percent=0.03, intensity=1.0):\n    _, height, width = image.size()\n    patch_size = int(height * patch_size_percent)  # Calculate patch size as a percent
…
